…
eatures)\n\n# Define the output layer for title input\ntitle_output = layers.Dense(1, activation='sigmoid', name=\"title_output\")(title_features)\n\n# Create the model\nmodel1 = tf.keras.Model(inputs=title_input, outputs=title_output)\nmodel1.summary()\n\nModel: \"functional_21\"\n\n\n\n┏━━━━━━━━━━━━━━━━━━━━━━━━━━━━━━━━━━━━━━┳━━━━━━━━━━━━━━━━━━━━━━━━━━━━━┳━━━━━━━━━━━━━━━━━┓\n┃ Layer (type)                         ┃ Output Shape                ┃         Param # ┃\n┡━━━━━━━━━━━━━━━━━━━━━━━━━━━━━━━━━━━━━━╇━━━━━━━━━━━━━━━━━━━━━━━━━━━━━╇━━━━━━━━━━━━━━━━━┩\n│ title (InputLayer)                   │ (None, 1)                   │               0 │\n├──────────────────────────────────────┼─────────────────────────────┼─────────────────┤\n│ text_vectorization_1                 │ (None, 500)                 │               0 │\n│ (TextVectorization)                  │                             │                 │\n├──────────────────────────────────────┼─────────────────────────────┼─────────────────┤\n│ embedding (Embedding)                │ (None, 500, 10)             │          20,000 │\n├──────────────────────────────────────┼─────────────────────────────┼─────────────────┤\n│ dropout_15 (Dropout)                 │ (None, 500, 10)             │               0 │\n├──────────────────────────────────────┼─────────────────────────────┼─────────────────┤\n│ conv1d (Conv1D)                      │ (None, 496, 128)            │           6,528 │\n├──────────────────────────────────────┼─────────────────────────────┼─────────────────┤\n│ max_pooling1d (MaxPooling1D)         │ (None, 99, 128)             │               0 │\n├──────────────────────────────────────┼─────────────────────────────┼─────────────────┤\n│ global_average_pooling1d_4           │ (None, 128)                 │               0 │\n│ (GlobalAveragePooling1D)             │                             │                 │\n├──────────────────────────────────────┼─────────────────────────────┼─────────────────┤\n│ dense_18 (Dense)                     │ (None, 64)                  │           8,256 │\n├──────────────────────────────────────┼─────────────────────────────┼─────────────────┤\n│ dropout_16 (Dropout)                 │ (None, 64)                  │               0 │\n├──────────────────────────────────────┼─────────────────────────────┼─────────────────┤\n│ dense_19 (Dense)                     │ (None, 32)                  │           2,080 │\n├──────────────────────────────────────┼─────────────────────────────┼─────────────────┤\n│ title_output (Dense)                 │ (None, 1)                   │              33 │\n└──────────────────────────────────────┴─────────────────────────────┴─────────────────┘\n\n\n\n Total params: 36,897 (144.13 KB)\n\n\n\n Trainable params: 36,897 (144.13 KB)\n\n\n\n Non-trainable params: 0 (0.00 B)\n\n\n\nThe summary function can be used to view the structure of model1, but, even better, we can use the utils function as shown below. The visualization provides an overview of t
…
.5)(main)\noutput = layers.Dense(1, name = \"fake\")(main)\n\nThen, we define the model with both the title input and text input:\n\nmodel3 = keras.Model(\n    inputs = [title_input, text_input],\n    outputs = output\n)\n\nmodel3.summary()\n\nModel: \"functional_43\"\n\n\n\n┏━━━━━━━━━━━━━━━━━━━━━━━━━━━┳━━━━━━━━━━━━━━━━━━━━━━━━┳━━━━━━━━━━━━━━━━┳━━━━━━━━━━━━━━━━━━━━━━━━┓\n┃ Layer (type)              ┃ Output Shape           ┃        Param # ┃ Connected to           ┃\n┡━━━━━━━━━━━━━━━━━━━━━━━━━━━╇━━━━━━━━━━━━━━━━━━━━━━━━╇━━━━━━━━━━━━━━━━╇━━━━━━━━━━━━━━━━━━━━━━━━┩\n│ title (InputLayer)        │ (None, 1)              │              0 │ -                      │\n├───────────────────────────┼────────────────────────┼────────────────┼────────────────────────┤\n│ text (InputLayer)         │ (None, 1)              │              0 │ -                      │\n├───────────────────────────┼────────────────────────┼────────────────┼────────────────────────┤\n│ text_vectorization_1      │ (None, 500)            │              0 │ title[0][0],           │\n│ (TextVectorization)       │                        │                │ text[0][0]             │\n├───────────────────────────┼────────────────────────┼────────────────┼────────────────────────┤\n│ embedding (Embedding)     │ (None, 500, 10)        │         20,000 │ text_vectorization_1[… │\n│                           │                        │                │ text_vectorization_1[… │\n├───────────────────────────┼────────────────────────┼────────────────┼────────────────────────┤\n│ dropout_15 (Dropout)      │ (None, 500, 10)        │              0 │ embedding[0][0]        │\n├───────────────────────────┼────────────────────────┼────────────────┼────────────────────────┤\n│ dropout_36 (Dropout)      │ (None, 500, 10)        │              0 │ embedding[9][0]        │\n├───────────────────────────┼────────────────────────┼────────────────┼────────────────────────┤\n│ conv1d (Conv1D)           │ (None, 496, 128)       │          6,528 │ dropout_15[0][0]       │\n├───────────────────────────┼────────────────────────┼────────────────┼────────────────────────┤\n│ conv1d_9 (Conv1D)         │ (None, 496, 128)       │          6,528 │ dropout_36[0][0]       │\n├───────────────────────────┼────────────────────────┼────────────────┼────────────────────────┤\n│ max_pooling1d             │ (None, 99, 128)        │              0 │ conv1d[0][0]           │\n│ (MaxPooling1D)            │                        │                │                        │\n├───────────────────────────┼────────────────────────┼────────────────┼────────────────────────┤\n│ max_pooling1d_8           │ (None, 99, 128)        │              0 │ conv1d_9[0][0]         │\n│ (MaxPooling1D)            │                        │                │                        │\n├───────────────────────────┼────────────────────────┼────────────────┼────────────────────────┤\n│ global_average_pooling1d… │ (None, 128)            │              0 │ max_pooling1d[0][0]    │\n│ (GlobalAveragePooling1D)  │                        │                │                        │\n├───────────────────────────┼────────────────────────┼────────────────┼────────────────────────┤\n│ global_average_pooling1d… │ (None, 128)            │              0 │ max_pooling1d_8[0][0]  │\n│ (GlobalAveragePooling1D)  │                        │                │                        │\n├───────────────────────────┼────────────────────────┼────────────────┼────────────────────────┤\n│ dense_18 (Dense)          │ (None, 64)             │          8,256 │ global_average_poolin… │\n├───────────────────────────┼────────────────────────┼────────────────┼────────────────────────┤\n│ dense_37 (Dense)          │ (None, 64)             │          8,256 │ global_average_poolin… │\n├───────────────────────────┼────────────────────────┼────────────────┼────────────────────────┤\n│ dropout_16 (Dropout)      │ (None, 64)             │              0 │ dense_18[0][0]         │\n├───────────────────────────┼────────────────────────┼────────────────┼────────────────────────┤\n│ dropout_37 (Dropout)      │ (None, 64)             │              0 │ dense_37[0][0]         │\n├───────────────────────────┼────────────────────────┼────────────────┼────────────────────────┤\n│ dense_19 (Dense)          │ (None, 32)             │          2,080 │ dropout_16[0][0]       │\n├───────────────────────────┼────────────────────────┼────────────────┼────────────────────────┤\n│ dense_38 (Dense)          │ (None, 32)             │          2,080 │ dropout_37[0][0]       │\n├───────────────────────────┼────────────────────────┼────────────────┼────────────────────────┤\n│ concatenate_8             │ (None, 64)             │              0 │ dense_19[0][0],        │\n│ (Concatenate)             │                        │                │ dense_38[0][0]         │\n├───────────────────────────┼────────────────────────┼────────────────┼────────────────────────┤\n│ dense_39 (Dense)          │ (None, 32)             │          2,080 │ concatenate_8[0][0]    │\n├───────────────────────────┼────────────────────────┼────────────────┼────────────────────────┤\n│ dropout_38 (Dropout)      │ (None, 32)             │              0 │ dense_39[0][0]         │\n├───────────────────────────┼────────────────────────┼────────────────┼────────────────────────┤\n│ fake (Dense)              │ (None, 1)              │             33 │ dropout_38[0][0]       │\n└───────────────────────────┴────────────────────────┴────────────────┴────────────────────────┘\n\n\n\n Total params: 55,841 (218.13 KB)\n\n\n\n Trainable params: 55,841 (218.13 KB)\n\n\n\n Non-trainable params: 0 (0.00 B)\n\n\n\nThrough this visualization of the model architecture, we can see how Functional API implements the layers of the different imputs and finall
…
),\n    layers.Dense(2, activation='softmax'),  # outputs the final classification\n])\n\n\n# Compile the model\nmodel4.compile(optimizer='adam',\n               loss='sparse_categorical_crossentropy',\n               metrics=['accuracy'])\n\nAfter compiling the model we can view it’s details using the summary function.\n\nmodel4.summary()\n\nModel: \"sequential_9\"\n_________________________________________________________________\n Layer (type)                Output Shape              Param #   \n=================================================================\n random_flip_5 (RandomFlip)  (None, 150, 150, 3)       0         \n                                                                 \n random_rotation_5 (RandomR  (None, 150, 150, 3)       0         \n otation)                                                        \n                                                                 \n model_2 (Functional)        (None, 5, 5, 960)         2996352   \n                                                                 \n global_max_pooling2d (Glob  (None, 960)               0         \n alMaxPooling2D)                                                 \n                                                                 \n dropout_14 (Dropout)        (None, 960)               0         \n                                                                 \n dense_21 (Dense)            (None, 2)                 1922      \n                                                                 \n=================================================================\nTotal params: 2998274 (11.44 MB)\nTrainable params: 1922 (7.51 KB)\nNon-trainable params: 2996352 (11.43 MB)\n_________________________________________________________________\n\n\n\nhistory_model4 = model4.fit(train_ds,\n                            epochs=2
…
